…
2022-12-09 02:32:26,518   INFO  Database filter by difficulty Pedestrian: 943716 => 943716
2022-12-09 02:32:26,529   INFO  Database filter by difficulty Cyclist: 47529 => 47529
2022-12-09 02:32:27,027   INFO  Loading Waymo dataset
2022-12-09 02:34:43,257   INFO  Total skipped info 0
2022-12-09 02:34:43,258   INFO  Total samples for Waymo dataset: 158081
2022-12-09 02:34:43,258   INFO  prepairing pose table for multi-sweeps data
2022-12-09 02:34:50,694   INFO  DistributedDataParallel(
  (module): CenterPoint(
    (vfe): VoxSeT(
      (input_embed): MLP(
        (layers): ModuleList(
          (0): Linear(in_features=5, out_features=16, bias=True)
          (1): Linear(in_features=16, out_features=16, bias=True)
        )
      )
      (pe0): PositionalEncodingFourier(
        (token_projection): Linear(in_features=192, out_features=16, bias=True)
      )
      (pe1): PositionalEncodingFourier(
        (token_projection): Linear(in_features=192, out_features=32, bias=True)
      )
      (pe2): PositionalEncodingFourier(
        (token_projection): Linear(in_features=192, out_features=64, bias=True)
      )
      (pe3): PositionalEncodingFourier(
        (token_projection): Linear(in_features=192, out_features=128, bias=True)
      )
      (mlp_vsa_layer_0): MLP_VSA_Layer(
        (pre_mlp): Sequential(
          (0): Linear(in_features=16, out_features=16, bias=True)
          (1): BatchNorm1d(16, eps=0.001, momentum=0.01, affine=True, track_running_stats=True)
          (2): ReLU()
          (3): Linear(in_features=16, out_features=16, bias=True)
          (4): BatchNorm1d(16, eps=0.001, momentum=0.01, affine=True, track_running_stats=True)
          (5): ReLU()
          (6): Linear(in_features=16, out_features=16, bias=True)
          (7): BatchNorm1d(16, eps=0.001, momentum=0.01, affine=True, track_running_stats=True)
        )
        (score): Linear(in_features=16, out_features=4, bias=True)
        (conv_ffn): Sequential(
          (0): Conv2d(64, 64, kernel_size=(3, 3), stride=(1, 1), padding=(1, 1), groups=64, bias=False)
          (1): BatchNorm2d(64, eps=1e-05, momentum=0.1, affine=True, track_running_stats=True)
          (2): ReLU()
          (3): Conv2d(64, 64, kernel_size=(3, 3), stride=(1, 1), padding=(1, 1), groups=64, bias=False)
          (4): BatchNorm2d(64, eps=1e-05, momentum=0.1, affine=True, track_running_stats=True)
          (5): ReLU()
          (6): Conv2d(64, 64, kernel_size=(1, 1), stride=(1, 1), bias=False)
        )
        (norm): BatchNorm1d(16, eps=0.001, momentum=0.01, affine=True, track_running_stats=True)
        (mhsa): MultiheadAttention(
          (out_proj): NonDynamicallyQuantizableLinear(in_features=16, out_features=16, bias=True)
        )
      )
      (mlp_vsa_layer_1): MLP_VSA_Layer(
        (pre_mlp): Sequential(
          (0): Linear(in_features=32, out_features=32, bias=True)
          (1): BatchNorm1d(32, eps=0.001, momentum=0.01, affine=True, track_running_stats=True)
          (2): ReLU()
          (3): Linear(in_features=32, out_features=32, bias=True)
          (4): BatchNorm1d(32, eps=0.001, momentum=0.01, affine=True, track_running_stats=True)
          (5): ReLU()
          (6): Linear(in_features=32, out_features=32, bias=True)
          (7): BatchNorm1d(32, eps=0.001, momentum=0.01, affine=True, track_running_stats=True)
        )
        (score): Linear(in_features=32, out_features=4, bias=True)
        (conv_ffn): Sequential(
          (0): Conv2d(128, 128, kernel_size=(3, 3), stride=(1, 1), padding=(1, 1), groups=128, bias=False)
          (1): BatchNorm2d(128, eps=1e-05, momentum=0.1, affine=True, track_running_stats=True)
          (2): ReLU()
          (3): Conv2d(128, 128, kernel_size=(3, 3), stride=(1, 1), padding=(1, 1), groups=128, bias=False)
          (4): BatchNorm2d(128, eps=1e-05, momentum=0.1, affine=True, track_running_stats=True)
          (5): ReLU()
          (6): Conv2d(128, 128, kernel_size=(1, 1), stride=(1, 1), bias=False)
        )
        (norm): BatchNorm1d(32, eps=0.001, momentum=0.01, affine=True, track_running_stats=True)
        (mhsa): MultiheadAttention(
          (out_proj): NonDynamicallyQuantizableLinear(in_features=32, out_features=32, bias=True)
        )
      )
      (mlp_vsa_layer_2): MLP_VSA_Layer(
        (pre_mlp): Sequential(
          (0): Linear(in_features=64, out_features=64, bias=True)
          (1): BatchNorm1d(64, eps=0.001, momentum=0.01, affine=True, track_running_stats=True)
          (2): ReLU()
          (3): Linear(in_features=64, out_features=64, bias=True)
          (4): BatchNorm1d(64, eps=0.001, momentum=0.01, affine=True, track_running_stats=True)
          (5): ReLU()
          (6): Linear(in_features=64, out_features=64, bias=True)
          (7): BatchNorm1d(64, eps=0.001, momentum=0.01, affine=True, track_running_stats=True)
        )
        (score): Linear(in_features=64, out_features=4, bias=True)
        (conv_ffn): Sequential(
          (0): Conv2d(256, 256, kernel_size=(3, 3), stride=(1, 1), padding=(1, 1), groups=256, bias=False)
          (1): BatchNorm2d(256, eps=1e-05, momentum=0.1, affine=True, track_running_stats=True)
          (2): ReLU()
          (3): Conv2d(256, 256, kernel_size=(3, 3), stride=(1, 1), padding=(1, 1), groups=256, bias=False)
          (4): BatchNorm2d(256, eps=1e-05, momentum=0.1, affine=True, track_running_stats=True)
          (5): ReLU()
          (6): Conv2d(256, 256, kernel_size=(1, 1), stride=(1, 1), bias=False)
        )
        (norm): BatchNorm1d(64, eps=0.001, momentum=0.01, affine=True, track_running_stats=True)
        (mhsa): MultiheadAttention(
          (out_proj): NonDynamicallyQuantizableLinear(in_features=64, out_features=64, bias=True)
        )
      )
      (mlp_vsa_layer_3): MLP_VSA_Layer(
        (pre_mlp): Sequential(
          (0): Linear(in_features=128, out_features=128, bias=True)
          (1): BatchNorm1d(128, eps=0.001, momentum=0.01, affine=True, track_running_stats=True)
          (2): ReLU()
          (3): Linear(in_features=128, out_features=128, bias=True)
          (4): BatchNorm1d(128, eps=0.001, momentum=0.01, affine=True, track_running_stats=True)
          (5): ReLU()
          (6): Linear(in_features=128, out_features=128, bias=True)
          (7): BatchNorm1d(128, eps=0.001, momentum=0.01, affine=True, track_running_stats=True)
        )
        (score): Linear(in_features=128, out_features=4, bias=True)
        (conv_ffn): Sequential(
          (0): Conv2d(512, 512, kernel_size=(3, 3), stride=(1, 1), padding=(1, 1), groups=512, bias=False)
          (1): BatchNorm2d(512, eps=1e-05, momentum=0.1, affine=True, track_running_stats=True)
          (2): ReLU()
          (3): Conv2d(512, 512, kernel_size=(3, 3), stride=(1, 1), padding=(1, 1), groups=512, bias=False)
          (4): BatchNorm2d(512, eps=1e-05, momentum=0.1, affine=True, track_running_stats=True)
          (5): ReLU()
          (6): Conv2d(512, 512, kernel_size=(1, 1), stride=(1, 1), bias=False)
        )
        (norm): BatchNorm1d(128, eps=0.001, momentum=0.01, affine=True, track_running_stats=True)
        (mhsa): MultiheadAttention(
          (out_proj): NonDynamicallyQuantizableLinear(in_features=128, out_features=128, bias=True)
        )
      )
      (post_mlp): Sequential(
        (0): Linear(in_features=256, out_features=128, bias=True)
        (1): BatchNorm1d(128, eps=0.001, momentum=0.01, affine=True, track_running_stats=True)
        (2): ReLU()
        (3): Linear(in_features=128, out_features=128, bias=True)
        (4): BatchNorm1d(128, eps=0.001, momentum=0.01, affine=True, track_running_stats=True)
        (5): ReLU()
        (6): Linear(in_features=128, out_features=128, bias=True)
        (7): BatchNorm1d(128, eps=0.001, momentum=0.01, affine=True, track_running_stats=True)
      )
    )
    (backbone_3d): PillarRes18BackBone8xHybridRefineBEV(
      (conv_collapse_exp): SparseSequential(
        (0): SparseConv2d(128, 128, kernel_size=[3, 3], stride=[1, 1], padding=[1, 1], dilation=[1, 1], output_padding=[0, 0], bias=False, algo=ConvAlgo.MaskImplicitGemm)
        (1): BatchNorm1d(128, eps=0.001, momentum=0.01, affine=True, track_running_stats=True)
        (2): ReLU()
      )
      (unet2d): UNet2D(
        (inc): DoubleConv(
          (double_conv): Sequential(
            (0): Conv2d(128, 64, kernel_size=(3, 3), stride=(1, 1), padding=(1, 1), bias=False)
            (1): BatchNorm2d(64, eps=0.001, momentum=0.01, affine=True, track_running_stats=True)
            (2): ReLU(inplace=True)
            (3): Conv2d(64, 64, kernel_size=(3, 3), stride=(1, 1), padding=(1, 1), bias=False)
            (4): BatchNorm2d(64, eps=0.001, momentum=0.01, affine=True, track_running_stats=True)
            (5): ReLU(inplace=True)
          )
        )
        (down1): Down(
          (maxpool_conv): Sequential(
            (0): MaxPool2d(kernel_size=2, stride=2, padding=0, dilation=1, ceil_mode=False)
            (1): DoubleConv(
              (double_conv): Sequential(
                (0): Conv2d(64, 128, kernel_size=(3, 3), stride=(1, 1), padding=(1, 1), bias=False)
                (1): BatchNorm2d(128, eps=0.001, momentum=0.01, affine=True, track_running_stats=True)
                (2): ReLU(inplace=True)
                (3): Conv2d(128, 128, kernel_size=(3, 3), stride=(1, 1), padding=(1, 1), bias=False)
                (4): BatchNorm2d(128, eps=0.001, momentum=0.01, affine=True, track_running_stats=True)
                (5): ReLU(inplace=True)
              )
            )
          )
        )
        (down2): Down(
          (maxpool_conv): Sequential(
            (0): MaxPool2d(kernel_size=2, stride=2, padding=0, dilation=1, ceil_mode=False)
            (1): DoubleConv(
              (double_conv): Sequential(
                (0): Conv2d(128, 256, kernel_size=(3, 3), stride=(1, 1), padding=(1, 1), bias=False)
                (1): BatchNorm2d(256, eps=0.001, momentum=0.01, affine=True, track_running_stats=True)
                (2): ReLU(inplace=True)
                (3): Conv2d(256, 256, kernel_size=(3, 3), stride=(1, 1), padding=(1, 1), bias=False)
                (4): BatchNorm2d(256, eps=0.001, momentum=0.01, affine=True, track_running_stats=True)
                (5): ReLU(inplace=True)
              )
            )
          )
        )
        (down3): Down(
          (maxpool_conv): Sequential(
            (0): MaxPool2d(kernel_size=2, stride=2, padding=0, dilation=1, ceil_mode=False)
            (1): DoubleConv(
              (double_conv): Sequential(
                (0): Conv2d(256, 512, kernel_size=(3, 3), stride=(1, 1), padding=(1, 1), bias=False)
                (1): BatchNorm2d(512, eps=0.001, momentum=0.01, affine=True, track_running_stats=True)
                (2): ReLU(inplace=True)
                (3): Conv2d(512, 512, kernel_size=(3, 3), stride=(1, 1), padding=(1, 1), bias=False)
                (4): BatchNorm2d(512, eps=0.001, momentum=0.01, affine=True, track_running_stats=True)
                (5): ReLU(inplace=True)
              )
            )
          )
        )
        (down4): Down(
          (maxpool_conv): Sequential(
            (0): MaxPool2d(kernel_size=2, stride=2, padding=0, dilation=1, ceil_mode=False)
            (1): DoubleConv(
              (double_conv): Sequential(
                (0): Conv2d(512, 1024, kernel_size=(3, 3), stride=(1, 1), padding=(1, 1), bias=False)
                (1): BatchNorm2d(1024, eps=0.001, momentum=0.01, affine=True, track_running_stats=True)
                (2): ReLU(inplace=True)
                (3): Conv2d(1024, 1024, kernel_size=(3, 3), stride=(1, 1), padding=(1, 1), bias=False)
                (4): BatchNorm2d(1024, eps=0.001, momentum=0.01, affine=True, track_running_stats=True)
                (5): ReLU(inplace=True)
              )
            )
          )
        )
        (up1): Up(
          (up): ConvTranspose2d(1024, 512, kernel_size=(2, 2), stride=(2, 2))
          (conv): DoubleConv(
            (double_conv): Sequential(
              (0): Conv2d(1024, 512, kernel_size=(3, 3), stride=(1, 1), padding=(1, 1), bias=False)
              (1): BatchNorm2d(512, eps=0.001, momentum=0.01, affine=True, track_running_stats=True)
              (2): ReLU(inplace=True)
              (3): Conv2d(512, 512, kernel_size=(3, 3), stride=(1, 1), padding=(1, 1), bias=False)
              (4): BatchNorm2d(512, eps=0.001, momentum=0.01, affine=True, track_running_stats=True)
              (5): ReLU(inplace=True)
            )
          )
        )
        (up2): Up(
          (up): ConvTranspose2d(512, 256, kernel_size=(2, 2), stride=(2, 2))
          (conv): DoubleConv(
            (double_conv): Sequential(
              (0): Conv2d(512, 256, kernel_size=(3, 3), stride=(1, 1), padding=(1, 1), bias=False)
              (1): BatchNorm2d(256, eps=0.001, momentum=0.01, affine=True, track_running_stats=True)
              (2): ReLU(inplace=True)
              (3): Conv2d(256, 256, kernel_size=(3, 3), stride=(1, 1), padding=(1, 1), bias=False)
              (4): BatchNorm2d(256, eps=0.001, momentum=0.01, affine=True, track_running_stats=True)
              (5): ReLU(inplace=True)
            )
          )
        )
        (up3): Up(
          (up): ConvTranspose2d(256, 128, kernel_size=(2, 2), stride=(2, 2))
          (conv): DoubleConv(
            (double_conv): Sequential(
              (0): Conv2d(256, 128, kernel_size=(3, 3), stride=(1, 1), padding=(1, 1), bias=False)
              (1): BatchNorm2d(128, eps=0.001, momentum=0.01, affine=True, track_running_stats=True)
              (2): ReLU(inplace=True)
              (3): Conv2d(128, 128, kernel_size=(3, 3), stride=(1, 1), padding=(1, 1), bias=False)
              (4): BatchNorm2d(128, eps=0.001, momentum=0.01, affine=True, track_running_stats=True)
              (5): ReLU(inplace=True)
            )
          )
        )
        (up4): Up(
          (up): ConvTranspose2d(128, 64, kernel_size=(2, 2), stride=(2, 2))
          (conv): DoubleConv(
            (double_conv): Sequential(
              (0): Conv2d(128, 64, kernel_size=(3, 3), stride=(1, 1), padding=(1, 1), bias=False)
              (1): BatchNorm2d(64, eps=0.001, momentum=0.01, affine=True, track_running_stats=True)
              (2): ReLU(inplace=True)
              (3): Conv2d(64, 64, kernel_size=(3, 3), stride=(1, 1), padding=(1, 1), bias=False)
              (4): BatchNorm2d(64, eps=0.001, momentum=0.01, affine=True, track_running_stats=True)
              (5): ReLU(inplace=True)
            )
          )
        )
        (outc): OutConv(
          (conv): Conv2d(64, 1, kernel_size=(1, 1), stride=(1, 1))
        )
      )
      (conv_mask_exp): DoubleConv(
        (double_conv): Sequential(
          (0): Conv2d(1, 128, kernel_size=(3, 3), stride=(1, 1), padding=(1, 1), bias=False)
          (1): BatchNorm2d(128, eps=0.001, momentum=0.01, affine=True, track_running_stats=True)
          (2): ReLU(inplace=True)
          (3): Conv2d(128, 128, kernel_size=(3, 3), stride=(1, 1), padding=(1, 1), bias=False)
          (4): BatchNorm2d(128, eps=0.001, momentum=0.01, affine=True, track_running_stats=True)
          (5): ReLU(inplace=True)
        )
      )
      (conv_merge_mask_exp): Sequential(
        (0): Sequential(
          (0): Conv2d(256, 128, kernel_size=(3, 3), stride=(1, 1), padding=(1, 1), bias=False)
          (1): BatchNorm2d(128, eps=0.001, momentum=0.01, affine=True, track_running_stats=True)
          (2): ReLU()
        )
        (1): Sequential(
          (0): Conv2d(128, 128, kernel_size=(3, 3), stride=(1, 1), padding=(1, 1), bias=False)
          (1): BatchNorm2d(128, eps=0.001, momentum=0.01, affine=True, track_running_stats=True)
          (2): ReLU()
        )
      )
      (conv_collapse_imp): SparseSequential(
        (0): SparseConv2d(128, 128, kernel_size=[3, 3], stride=[1, 1], padding=[1, 1], dilation=[1, 1], output_padding=[0, 0], bias=False, algo=ConvAlgo.MaskImplicitGemm)
        (1): BatchNorm1d(128, eps=0.001, momentum=0.01, affine=True, track_running_stats=True)
        (2): ReLU()
      )
      (conv_down_3to4_imp): Sequential(
        (0): Sequential(
          (0): Conv2d(128, 128, kernel_size=(3, 3), stride=(1, 1), padding=(1, 1), bias=False)
          (1): BatchNorm2d(128, eps=0.001, momentum=0.01, affine=True, track_running_stats=True)
          (2): ReLU()
        )
        (1): Sequential(
          (0): Conv2d(128, 128, kernel_size=(3, 3), stride=(1, 1), padding=(1, 1), bias=False)
          (1): BatchNorm2d(128, eps=0.001, momentum=0.01, affine=True, track_running_stats=True)
          (2): ReLU()
        )
      )
      (implicit_net2d): ImplicitNet2d(
        (encoder): MultiScaleEncoder2D(
          (conv_input): DoubleConv(
            (double_conv): Sequential(
              (0): Conv2d(128, 64, kernel_size=(3, 3), stride=(1, 1), padding=(1, 1), bias=False)
              (1): BatchNorm2d(64, eps=0.001, momentum=0.01, affine=True, track_running_stats=True)
              (2): ReLU(inplace=True)
              (3): Conv2d(64, 64, kernel_size=(3, 3), stride=(1, 1), padding=(1, 1), bias=False)
              (4): BatchNorm2d(64, eps=0.001, momentum=0.01, affine=True, track_running_stats=True)
              (5): ReLU(inplace=True)
            )
          )
          (down1): Down(
            (maxpool_conv): Sequential(
              (0): MaxPool2d(kernel_size=2, stride=2, padding=0, dilation=1, ceil_mode=False)
              (1): DoubleConv(
                (double_conv): Sequential(
                  (0): Conv2d(64, 128, kernel_size=(3, 3), stride=(1, 1), padding=(1, 1), bias=False)
                  (1): BatchNorm2d(128, eps=0.001, momentum=0.01, affine=True, track_running_stats=True)
                  (2): ReLU(inplace=True)
                  (3): Conv2d(128, 128, kernel_size=(3, 3), stride=(1, 1), padding=(1, 1), bias=False)
                  (4): BatchNorm2d(128, eps=0.001, momentum=0.01, affine=True, track_running_stats=True)
                  (5): ReLU(inplace=True)
                )
              )
            )
          )
          (down2): Down(
            (maxpool_conv): Sequential(
              (0): MaxPool2d(kernel_size=2, stride=2, padding=0, dilation=1, ceil_mode=False)
              (1): DoubleConv(
                (double_conv): Sequential(
                  (0): Conv2d(128, 128, kernel_size=(3, 3), stride=(1, 1), padding=(1, 1), bias=False)
                  (1): BatchNorm2d(128, eps=0.001, momentum=0.01, affine=True, track_running_stats=True)
                  (2): ReLU(inplace=True)
                  (3): Conv2d(128, 128, kernel_size=(3, 3), stride=(1, 1), padding=(1, 1), bias=False)
                  (4): BatchNorm2d(128, eps=0.001, momentum=0.01, affine=True, track_running_stats=True)
                  (5): ReLU(inplace=True)
                )
              )
            )
          )
          (down3): Down(
            (maxpool_conv): Sequential(
              (0): MaxPool2d(kernel_size=2, stride=2, padding=0, dilation=1, ceil_mode=False)
              (1): DoubleConv(
                (double_conv): Sequential(
                  (0): Conv2d(128, 128, kernel_size=(3, 3), stride=(1, 1), padding=(1, 1), bias=False)
                  (1): BatchNorm2d(128, eps=0.001, momentum=0.01, affine=True, track_running_stats=True)
                  (2): ReLU(inplace=True)
                  (3): Conv2d(128, 128, kernel_size=(3, 3), stride=(1, 1), padding=(1, 1), bias=False)
                  (4): BatchNorm2d(128, eps=0.001, momentum=0.01, affine=True, track_running_stats=True)
                  (5): ReLU(inplace=True)
                )
              )
            )
          )
        )
        (decoder): Sequential(
          (0): Linear(in_features=448, out_features=128, bias=True)
          (1): ReLU()
          (2): Linear(in_features=128, out_features=128, bias=True)
          (3): ReLU()
          (4): Linear(in_features=128, out_features=128, bias=True)
          (5): ReLU()
          (6): Linear(in_features=128, out_features=1, bias=True)
        )
      )
      (conv_mask_imp): DoubleConv(
        (double_conv): Sequential(
          (0): Conv2d(1, 128, kernel_size=(3, 3), stride=(1, 1), padding=(1, 1), bias=False)
          (1): BatchNorm2d(128, eps=0.001, momentum=0.01, affine=True, track_running_stats=True)
          (2): ReLU(inplace=True)
          (3): Conv2d(128, 128, kernel_size=(3, 3), stride=(1, 1), padding=(1, 1), bias=False)
          (4): BatchNorm2d(128, eps=0.001, momentum=0.01, affine=True, track_running_stats=True)
          (5): ReLU(inplace=True)
        )
      )
      (conv_merge_mask_imp): Sequential(
        (0): Sequential(
          (0): Conv2d(256, 128, kernel_size=(3, 3), stride=(1, 1), padding=(1, 1), bias=False)
          (1): BatchNorm2d(128, eps=0.001, momentum=0.01, affine=True, track_running_stats=True)
          (2): ReLU()
        )
      )
      (conv_merge_bev): Sequential(
        (0): Sequential(
          (0): Conv2d(384, 128, kernel_size=(3, 3), stride=(1, 1), padding=(1, 1), bias=False)
          (1): BatchNorm2d(128, eps=0.001, momentum=0.01, affine=True, track_running_stats=True)
          (2): ReLU()
        )
      )
      (cls_loss_func): SigmoidFocalClassificationLoss()
    )
    (map_to_bev_module): None
    (pfe): None
    (backbone_2d): BaseBEVBackbone(
      (blocks): ModuleList(
        (0): Sequential(
          (0): ZeroPad2d(padding=(1, 1, 1, 1), value=0.0)
          (1): Conv2d(128, 128, kernel_size=(3, 3), stride=(1, 1), bias=False)
          (2): BatchNorm2d(128, eps=0.001, momentum=0.01, affine=True, track_running_stats=True)
          (3): ReLU()
          (4): Conv2d(128, 128, kernel_size=(3, 3), stride=(1, 1), padding=(1, 1), bias=False)
          (5): BatchNorm2d(128, eps=0.001, momentum=0.01, affine=True, track_running_stats=True)
          (6): ReLU()
          (7): Conv2d(128, 128, kernel_size=(3, 3), stride=(1, 1), padding=(1, 1), bias=False)
          (8): BatchNorm2d(128, eps=0.001, momentum=0.01, affine=True, track_running_stats=True)
          (9): ReLU()
          (10): Conv2d(128, 128, kernel_size=(3, 3), stride=(1, 1), padding=(1, 1), bias=False)
          (11): BatchNorm2d(128, eps=0.001, momentum=0.01, affine=True, track_running_stats=True)
          (12): ReLU()
        )
        (1): Sequential(
          (0): ZeroPad2d(padding=(1, 1, 1, 1), value=0.0)
          (1): Conv2d(128, 128, kernel_size=(3, 3), stride=(2, 2), bias=False)
          (2): BatchNorm2d(128, eps=0.001, momentum=0.01, affine=True, track_running_stats=True)
          (3): ReLU()
          (4): Conv2d(128, 128, kernel_size=(3, 3), stride=(1, 1), padding=(1, 1), bias=False)
          (5): BatchNorm2d(128, eps=0.001, momentum=0.01, affine=True, track_running_stats=True)
          (6): ReLU()
          (7): Conv2d(128, 128, kernel_size=(3, 3), stride=(1, 1), padding=(1, 1), bias=False)
          (8): BatchNorm2d(128, eps=0.001, momentum=0.01, affine=True, track_running_stats=True)
          (9): ReLU()
          (10): Conv2d(128, 128, kernel_size=(3, 3), stride=(1, 1), padding=(1, 1), bias=False)
          (11): BatchNorm2d(128, eps=0.001, momentum=0.01, affine=True, track_running_stats=True)
          (12): ReLU()
        )
      )
      (deblocks): ModuleList(
        (0): Sequential(
          (0): ConvTranspose2d(128, 128, kernel_size=(1, 1), stride=(1, 1), bias=False)
          (1): BatchNorm2d(128, eps=0.001, momentum=0.01, affine=True, track_running_stats=True)
          (2): ReLU()
        )
        (1): Sequential(
          (0): ConvTranspose2d(128, 128, kernel_size=(2, 2), stride=(2, 2), bias=False)
          (1): BatchNorm2d(128, eps=0.001, momentum=0.01, affine=True, track_running_stats=True)
          (2): ReLU()
        )
      )
    )
    (dense_head): CenterHead(
      (shared_conv): Sequential(
        (0): Conv2d(256, 64, kernel_size=(3, 3), stride=(1, 1), padding=(1, 1))
        (1): BatchNorm2d(64, eps=1e-05, momentum=0.1, affine=True, track_running_stats=True)
        (2): ReLU()
      )
      (heads_list): ModuleList(
        (0): SeparateHead(
          (center): Sequential(
            (0): Sequential(
              (0): Conv2d(64, 64, kernel_size=(3, 3), stride=(1, 1), padding=(1, 1))
              (1): BatchNorm2d(64, eps=1e-05, momentum=0.1, affine=True, track_running_stats=True)
              (2): ReLU()
            )
            (1): Conv2d(64, 2, kernel_size=(3, 3), stride=(1, 1), padding=(1, 1))
          )
          (center_z): Sequential(
            (0): Sequential(
              (0): Conv2d(64, 64, kernel_size=(3, 3), stride=(1, 1), padding=(1, 1))
              (1): BatchNorm2d(64, eps=1e-05, momentum=0.1, affine=True, track_running_stats=True)
              (2): ReLU()
            )
            (1): Conv2d(64, 1, kernel_size=(3, 3), stride=(1, 1), padding=(1, 1))
          )
          (dim): Sequential(
            (0): Sequential(
              (0): Conv2d(64, 64, kernel_size=(3, 3), stride=(1, 1), padding=(1, 1))
              (1): BatchNorm2d(64, eps=1e-05, momentum=0.1, affine=True, track_running_stats=True)
              (2): ReLU()
            )
            (1): Conv2d(64, 3, kernel_size=(3, 3), stride=(1, 1), padding=(1, 1))
          )
          (rot): Sequential(
            (0): Sequential(
              (0): Conv2d(64, 64, kernel_size=(3, 3), stride=(1, 1), padding=(1, 1))
              (1): BatchNorm2d(64, eps=1e-05, momentum=0.1, affine=True, track_running_stats=True)
              (2): ReLU()
            )
            (1): Conv2d(64, 2, kernel_size=(3, 3), stride=(1, 1), padding=(1, 1))
          )
          (hm): Sequential(
            (0): Sequential(
              (0): Conv2d(64, 64, kernel_size=(3, 3), stride=(1, 1), padding=(1, 1))
              (1): BatchNorm2d(64, eps=1e-05, momentum=0.1, affine=True, track_running_stats=True)
              (2): ReLU()
            )
            (1): Conv2d(64, 3, kernel_size=(3, 3), stride=(1, 1), padding=(1, 1))
          )
        )
      )
      (hm_loss_func): FocalLossCenterNet()
      (reg_loss_func): RegLossCenterNet()
    )
    (point_head): PointHeadSimple(
      (cls_loss_func): SigmoidFocalClassificationLoss()
      (cls_layers): Sequential(
        (0): Linear(in_features=128, out_features=128, bias=False)
        (1): BatchNorm1d(128, eps=1e-05, momentum=0.1, affine=True, track_running_stats=True)
        (2): ReLU()
        (3): Linear(in_features=128, out_features=128, bias=False)
        (4): BatchNorm1d(128, eps=1e-05, momentum=0.1, affine=True, track_running_stats=True)
        (5): ReLU()
        (6): Linear(in_features=128, out_features=1, bias=True)
      )
    )
    (roi_head): None
  )
)
2022-12-09 02:34:50,700   INFO  **********************Start training waymo_models/gen2DSS/centerpoint_voxset_1x_gen2dss_hybrid_train100_testSI1_lr0006_smpW1(default)**********************
2022-12-13 06:17:14,717   INFO  **********************End training waymo_models/gen2DSS/centerpoint_voxset_1x_gen2dss_hybrid_train100_testSI1_lr0006_smpW1(default)**********************
…
